model.pth (torch, 2048 bytes, 3 tensors)

fc1.weight f4 [8, 1]
1.3936826 -0.38238418 0.37988824 -0.029592345 0.5311024 1.3310746 -0.1333625 -0.18256128
00000000: 3164 b23f dcc7 c3be b680 c23e a56b f2bc
00000010: 54f6 073f a760 aa3f 2e90 08be 58f1 3abe

fc1.bias f4 [8]
-0.13891564 0.366951 1.5367805 -0.5773056 0.7791332 -0.13670304 0.044176042 -0.3833425
00000000: e73f 0ebe 00e1 bb3e 39b5 c43f 4dca 13bf
00000010: 4675 473f e2fb 0bbe f0f1 343d 7845 c4be

fc2.weight f4 [1, 8]
0.6949075 -0.20134123 0.7602628 0.026550014 0.74586225 0.7406653 -0.1563199 -0.10792501
00000000: 75e5 313f 652c 4ebe 95a0 423f 6a7f d93c
00000010: d4f0 3e3f 3e9c 3d3f 5312 20be ca07 ddbd
