model.pth (torch, 2996 bytes, 5 tensors)

fc1.weight f4 [16, 1]
00000000: b2ad 12bf 2394 fb3e 3628 763d 9b76 253f
00000010: 1d16 103f 7ef8 b2bd e6ef 59bf 5ca7 b1be
00000020: 7687 2bbf f3f3 adbd 104e 65be 0c7f 493f
00000030: 04d6 63bf 48c8 d038 48ec 3ebf c4bb 99be
-0.5729629 0.49136457 0.060096942 0.646341 0.5628374 -0.087388024 -0.8513168 -0.34697998
-0.6700357 -0.08493795 -0.2239306 0.78709483 -0.88998437 9.955518e-05 -0.74579287 -0.30026066

fc1.bias f4 [16]
00000000: 0e6d 083f 4d8d 33bf ddf8 3c3e 573b 25bf
00000010: 7c82 ffbe 8cdc 9d3f 88a1 b2be dc6f b3be
00000020: 4c73 e9be 841e 9b3f 6c7e 7dbf d11f bd3e
00000030: 6eed 203f df70 5e3f cea1 203f 1c24 80be
0.53291404 -0.7013748 0.18454309 -0.6454367 -0.4990424 1.233293 -0.34888864 -0.3504628
-0.45595777 1.2118688 -0.9902103 0.36938336 0.6286229 0.8689098 0.62746894 -0.2502755

fc2.weight f4 [8, 16]
00000000: 7402 6f3e b8b2 5abe d593 6a3d 6a5f 0d3e
00000010: 0175 e9bc 21e3 d5be 30f0 f5bc 08b4 4c3d
00000020: a617 073e 90ea c13c 18c3 c83d ec3f 463d
00000030: 2abf 2abe f5ae 68be 1027 0ebd a021 edbc
00000040: d893 f23d 00ec 693d 60be 163e f40a 113e
00000050: 8855 bbbd 504b 57bd dcf1 60be 10c4 633e
00000060: 7a84 5e3e 3c51 bfbd 4c55 c6bd 0c70 6dbe
00000070: 3667 19be 6cf1 4c3e 3041 763d dee7 32be
00000080: f02a 4bbe 37ac 81bd 4ba1 6dbe 20dd ea3d
00000090: f61c 8f3d 400e ca3b 0080 07b7 34b3 8bbd
000000a0: a895 133d 084f 3bbd b2d6 5abe 05c6 5bbe
000000b0: 2c58 76be 00ea e33b 8c80 72be d4f7 75be
000000c0: 122b 22be d5a0 49be 0940 133e 9be1 8dbd
000000d0: 0aeb 3c3e 99d2 043f 60e2 1b3c 84ea a0bd
000000e0: 4016 cabc 7ed2 123f 00af b3bc 5acd 373e
000000f0: 7c3a 7a3e f8c3 373f c0f8 833c 5452 803d
00000100: 8ed7 00be eca8 b43d 1aa7 4e3b 65bf 97be
00000110: a041 0dbe a43f e5bb 4064 3bbe 3852 f9bd
00000120: 9498 1e3e bf19 3bbe a064 45bc aed7 87bd
00000130: 00db 9abb 99bd 78be b884 403d 2a70 6dbe
00000140: 30e8 4b3e fecf 233e 5f61 bc3d c668 1abe
00000150: 8284 3c3c a6c1 35be 50ab 9cbc 4012 51bc
00000160: 92da 19be 18e1 d93d ac61 55be f495 52bd
00000170: 684f d7bd c658 edbd 607e b03c 7863 40bd
00000180: 40d1 3fbe edfc afbe b965 ec3d 8c8d 4bbe
00000190: e545 69bd 75ca 36be 5884 123e 2021 c8bd
000001a0: 5289 4fbe e92f 71be c09a c43b b32c c93b
000001b0: a258 323e 2379 49bd e22f 043e f604 703e
000001c0: 98c4 d6bd 1e1d fcbd ce2b a13d 2bf0 cabc
000001d0: 671e 443e 1140 a43e 6061 083e b80a 2c3d
000001e0: 8465 a23d 1eec 273f 8491 43be ae6a 383e
000001f0: 88aa 5c3e 7e2d ad3e 7ae7 303e 32f5 3a3e
0.2334078 -0.21357238 0.05726989 0.13805929 -0.028498175 -0.41774848 -0.030021757 0.04997638
0.13192615 0.023671418 0.09802836 0.048400804 -0.16674486 -0.22722991 -0.03470522 -0.028946698
0.11844605 0.057109833 0.1472106 0.14164335 -0.09147173 -0.052562058 -0.21967262 0.2224276
0.21730223 -0.09341666 -0.09684238 -0.23187274 -0.14980778 0.2001397 0.06012076 -0.17471263
-0.19840598 -0.063316755 -0.2320606 0.114679575 0.06987946 0.0061662495 -8.076429e-06 -0.0682129
0.036031395 -0.045729667 -0.21370962 -0.21462257 -0.24057072 0.006955385 -0.23681849 -0.2402032
-0.15836743 -0.19690259 0.14379896 -0.069277965 0.18449035 0.51883847 0.009514421 -0.0785723
-0.024668813 0.57352436 -0.021934032 0.17949429 0.24436373 0.717834 0.016109824 0.06265703
-0.12582228 0.08821282 0.0031532706 -0.2963821 -0.13794565 -0.006996112 -0.18299961 -0.12173885
0.15487891 -0.1827154 -0.012047917 -0.066329345 -0.004725814 -0.24291076 0.04700157 -0.23187318
0.19912791 0.15997311 0.091982596 -0.1507903 0.011506202 -0.17749652 -0.019124657 -0.012760699
-0.15024784 0.10638636 -0.2083804 -0.051412538 -0.105131924 -0.11589198 0.021544635 -0.04696986
-0.18732166 -0.34372655 0.115428396 -0.19878215 -0.056951422 -0.17850669 0.14308298 -0.09771943
-0.20267227 -0.23553433 0.005999893 0.0061393618 0.17416623 -0.04918779 0.12908891 0.23439392
-0.10486716 -0.12310241 0.07869683 -0.024772724 0.19152223 0.3208013 0.13318396 0.04200241
0.07929519 0.6559466 -0.19098479 0.18009445 0.21549428 0.3382377 0.17275801 0.18257597

fc2.bias f4 [8]
00000000: 1ce3 86bd a0e1 213e b997 fc3c 2536 a4bb
00000010: b2e2 b23d 8e7c 47be 055d 8a3d 7f4e e73e
-0.065862864 0.15808725 0.030834066 -0.0050113373 0.08734645 -0.19481108 0.06756023 0.45177075

fc3.weight f4 [1, 8]
00000000: c577 17bd c908 e9bd 35bb 453c 5e24 633e
00000010: 2f06 c4bd 4294 9e3d c674 7ebe 54ce 493e
-0.036979456 -0.11378629 0.012068559 0.22181842 -0.09571492 0.07743122 -0.24849233 0.19707614
